images/hussien.tflite (tflite, 709020 bytes, 9 tensors)

sequential/conv2d/BiasAdd/ReadVariableOp f4 [32]
-0.058890022 -0.20749229 0.05412568 -0.11911062 0.013755189 0.021593632 -0.090026036 -0.08907013
0.13374595 0.01680051 -0.007523407 0.046521895 0.053113196 0.102376565 0.020025866 0.028911412
-0.0013510955 -0.061636686 0.014139918 0.07160381 -0.0011250228 -0.17116465 0.011055755 -0.15034579
-0.24916877 0.015130457 -0.09914971 0.051648412 -0.14587636 -0.012516712 0.015257243 -0.0036241089
00000000: aa36 71bd dc78 54be e4b2 5d3d 45f0 f3bd
00000010: 725d 613c 21e5 b03c 925f b8bd 666a b6bd
00000020: b3f4 083e 39a1 893c ea86 f6bb be8d 3e3d
00000030: 398d 593d ceaa d13d 490d a43c a0d7 ec3c
00000040: 3e17 b1ba c076 7cbd 1dab 673c 05a5 923d
00000050: 8075 93ba c945 2fbe 3323 353c 3ff4 19be
00000060: 1926 7fbe bce5 773c 010f cbbd 498d 533d
00000070: 9d60 15be e512 4dbc 84f9 793c 7582 6dbb

sequential/conv2d_1/BiasAdd/ReadVariableOp f4 [32]
-0.07828559 0.014060543 -0.08415357 0.018451035 -0.043647874 -0.023868207 -0.029197637 0.00020103781
-0.021450602 0.0012029035 -0.07620681 0.013038589 -0.011715382 -0.04519059 -0.00996437 -0.020776749
-0.06489477 -0.09002231 0.04340415 0.02889387 -0.008075351 -0.05986211 -0.048607554 -0.03801864
0.012072541 -0.023829205 0.028523974 -0.04350213 -0.080432184 0.023194013 -0.0145425955 0.017746432
00000000: 3254 a0bd 315e 663c b558 acbd a026 973c
00000010: 1dc8 32bd 4287 c3bc e22f efbc adcd 5239
00000020: 2cb9 afbc beaa 9d3a 5112 9cbd ce9f 553c
00000030: e0f1 3fbc c519 39bd 9941 23bc 0034 aabc
00000040: 8de7 84bd 9e5d b8bd 8dc8 313d d6b2 ec3c
00000050: 7a4e 04bc f931 75bd b718 47bd 6fb9 1bbd
00000060: e8cb 453c 7735 c3bc 1cab e93c 4a2f 32bd
00000070: a1b9 a4bd 5f01 be3c 1144 6ebc f760 913c

sequential/conv2d_2/BiasAdd/ReadVariableOp f4 [64]
0.053476468 -0.063902 -0.04641395 -0.04952547 -0.028294414 0.0042009824 0.03174464 -0.054724384
0.030638365 -0.0489974 0.023221083 -0.0011232097 -0.057410758 -0.042875715 0.00068078464 0.040721092
-0.022681534 -0.03412257 -0.12713975 0.033808436 0.06509913 -0.09768969 0.092596896 0.0022294198
0.005633941 -0.024955785 -0.014679103 -0.001652181 0.017925844 -0.119398005 -0.05871229 -0.028173983
0.12967189 -0.01592943 -0.041233044 -0.015498668 -0.029914564 -0.09654444 0.050090097 -0.013597617
-0.0451072 -0.031191796 -0.025420398 0.059900913 0.0017090689 0.044369902 -0.0017373214 -0.04131926
-0.09297476 0.015019394 -0.035177544 0.029182836 -0.03936684 0.030025382 0.12850499 -0.016614495
-0.0072729457 -0.12912081 0.0679962 0.03483255 -0.044186633 -0.040381737 -0.092483364 -0.03642836
00000000: 240a 5b3d 0ddf 82bd 8e1c 3ebd 38db 4abd
00000010: b0c9 e7bc 65a8 893b ab06 023d ad26 60bd
00000020: 4ffd fa3c 7fb1 48bd 243a be3c aa38 93ba
00000030: 8b27 6bbd 729e 2fbd af76 323a 29cb 263d
00000040: a0ce b9bc 1cc4 0bbd ec30 02be b77a 0a3d
00000050: b152 853d 8811 c8bd 71a3 bd3d 751b 123b
00000060: ec9c b83b 1370 ccbc 9f80 70bc ff8d d8ba
00000070: 38d9 923c f186 f4bd 4c7c 70bd 20cd e6bc
00000080: b5c8 043e 707e 82bc fbe3 28bd 20ee 7dbc
00000090: 630f f5bc 17b9 c5bd 462b 4d3d 8ac8 5ebc
000000a0: 54c2 38bd f085 ffbc 703e d0bc a95a 753d
000000b0: d602 e03a 37bd 353d d5b6 e3ba 623e 29bd
000000c0: 8d69 bebd e813 763c 5416 10bd d810 ef3c
000000d0: 203f 21bd caf7 f53c d096 033e 1f1b 88bc
000000e0: e451 eebb 3f38 04be 9741 8b3d 93ac 0e3d
000000f0: 0bfd 34bd 5267 25bd eb67 bdbd e735 15bd

sequential/conv2d/Conv2D f4 [32, 3, 3, 3]
0.23851548 0.13357621 0.22933252 0.12942351 0.20356078 0.24695161 -0.039863188 0.09175197
0.19217835 -0.13459013 0.023036165 -0.053004466 0.14444506 0.11346954 0.01816863 0.18182042
0.12731074 -0.0026831855 -0.2688274 -0.21415547 -0.268831 -0.025996376 -0.1992433 -0.11866739
-0.14302602 -0.060104948 -0.06148708 -0.020954223 0.14806376 0.009187798 0.066165365 0.033531282
0.019049644 -0.060557324 -0.13598584 -0.07367057 0.22855626 0.07456829 -0.026519269 -0.03540815
0.15036944 0.1309229 -0.061146997 0.09736948 0.1212024 0.2719379 0.05904765 0.30324107
0.18598866 0.026012853 0.23313928 0.083258204 0.062318347 0.10995253 -0.15751608 -0.10355193
-0.11203438 0.22372252 0.09148106 0.20332296 0.24048576 0.20586629 0.019002719 -0.044127565
-0.26847172 -0.027196184 -0.16033277 -0.048618834 -0.11853274 0.1409333 0.12415447 0.25755617
-0.16652164 -0.25632167 -0.16942613 -0.25978306 -0.20041525 -0.069188416 0.16836157 0.13439952
0.24502307 -0.009431174 0.13589166 -0.020844879 0.05887172 0.0051643155 -0.06960482 -0.18883817
-0.0081031965 -0.19307654 0.14782327 0.13813077 0.10732609 0.08765373 -0.06938543 -0.054148037
-0.13313365 0.090812795 0.06399027 0.18312044 0.104033515 0.11693586 0.06518752 0.1626876
0.16304225 0.15812215 -0.02352284 0.0033131214 0.019686429 0.089543894 0.10829949 -0.10064357
-0.09032357 -0.10749057 -0.24132311 -0.24591124 -0.33119255 0.11716842 0.09547735 -0.095332205
-0.13974789 -0.12256076 -0.21057549 -0.17544635 -0.05951966 -0.10814334 0.20199332 0.10826903
0.11816454 0.17083813 0.09551916 0.20776261 0.12114511 0.13203864 0.19979282 0.09502575
0.03514649 -0.04936209 0.2366943 0.21667364 0.2829176 0.07803811 0.21524584 0.22217353
-0.1843143 -0.024826763 0.061528023 -0.022438874 -0.019491186 -0.12405064 0.1159217 0.12123138
0.10285353 0.06386631 -0.17103429 -0.034314524 -0.18939678 -0.3004081 -0.15630957 -0.20401506
-0.19850789 -0.05324646 0.15611415 0.21305443 0.18074018 0.17175402 0.041168775 0.11075116
0.22696176 0.17126727 0.09933996 0.042687535 -0.071242206 0.06924549 -0.060969852 0.10294509
0.044659723 0.14811878 0.17635524 0.06270385 -0.08935455 -0.10849131 -0.154794 -0.1236698
0.02792017 -0.12647197 -0.01364566 -0.17917186 -0.2259962 0.17360972 0.19988225 0.253529
0.08381791 -0.06978283 0.12710416 -0.17189519 -0.21920502 -0.17451705 0.240414 0.22118363
0.23739046 0.1308775 0.16645907 0.2669847 -0.11043616 -0.14295061 -0.061832927 0.19705972
0.108073816 0.067251526 0.2469499 0.24418628 0.06932624 0.04355585 0.08919859 0.11921912
0.29404762 0.27412307 0.37503013 -0.1794367 -0.22911185 -0.03388734 -0.54084194 -0.38023052
-0.5038759 -0.19319399 -0.13149485 -0.26715162 -0.87288946 -0.84439325 -0.90934664 -0.83600557
-0.60851717 -0.7563179 -0.5959882 -0.6259979 -0.4243634 -0.5838317 -0.57812554 -0.7647019
-0.49127164 -0.5617926 -0.34541807 0.033961672 0.18469161 0.1407603 0.08763757 0.086928576
0.061337072 -0.41489127 -0.4226265 -0.40032357 0.28050217 0.14343427 0.26241717 0.23516698
00000000: 673d 743e 34c8 083e 25d6 6a3e 9987 043e
00000010: 3d72 503e e2e0 7c3e 9547 23bd 75e8 bb3d
00000020: 67ca 443e ffd1 09be 57b6 bc3c 361b 59bd
00000030: 68e9 133e b862 e83d 61d6 943c 222f 3a3e
00000040: bf5d 023e 62d8 2fbb bfa3 89be 924b 5bbe
00000050: 38a4 89be 5af6 d4bc 7006 4cbe e307 f3bd
00000060: 6a75 12be 9b30 76bd e0d9 7bbd 31a8 abbc
00000070: 079e 173e 6b88 163c b581 873d 1958 093d
00000080: 000e 9c3c f50a 78bd df3f 0bbe 99e0 96bd
00000090: a70a 6a3e 42b7 983d f03e d9bc 2308 11bd
000000a0: 72fa 193e a710 063e 4675 7abd a669 c73d
000000b0: f738 f83d 723b 8b3e f3db 713d 6a42 9b3e
000000c0: d073 3e3e e818 d53c 10bc 6e3e 4783 aa3d
000000d0: 8641 7f3d cb2e e13d e54b 21be 0913 d4bd
000000e0: 4872 e5bd 8417 653e 6c5a bb3d e533 503e
000000f0: e641 763e 9dce 523e 97ab 9b3c 1bbf 34bd
00000100: 2075 89be 88ca debc 462e 24be 8b24 47bd
00000110: 4bc1 f2bd d250 103e b344 fe3d 67de 833e
00000120: a684 2abe 983c 83be 0b7e 2dbe 4902 85be
00000130: a839 4dbe a8b2 8dbd fa66 2c3e 07a0 093e
00000140: 54e7 7a3e 3685 1abc 2f27 0b3e e1c2 aabc
00000150: 7923 713d 6b39 a93b f98c 8ebd cb5e 41be
00000160: 45c3 04bc dbb5 45be fc5e 173e 2772 0d3e
00000170: c8cd db3d cc83 b33d f319 8ebd 55ca 5dbd
00000180: 3054 08be 0ffc b93d 550d 833d ed83 3b3e
00000190: 860f d53d 117c ef3d 0981 853d 9497 263e
000001a0: 8cf4 263e c6ea 213e f9b2 c0bc f420 593b
000001b0: 6f45 a13c ca62 b73d 1fcc dd3d 371e cebd
000001c0: 90fb b8bd 0424 dcbd 681d 77be 28d0 7bbe
000001d0: 1292 a9be fff5 ef3d a189 c33d 883d c3bd
000001e0: 121a 0fbe 2301 fbbd 1aa1 57be 35a8 33be
000001f0: e3ca 73bd 417a ddbd 56d7 4e3e 27bc dd3d
00000200: 4000 f23d 31f0 2e3e 8d9f c33d b9bf 543e
00000210: ed1a f83d 2335 073e 7d96 4c3e dc9c c23d
00000220: c4f5 0f3d e72f 4abd fe5f 723e b2df 5d3e
00000230: 93da 903e 72d2 9f3d 6869 5c3e 7581 633e
00000240: e3bc 3cbe 7f61 cbbc cf04 7c3d bbd1 b7bc
00000250: fbab 9fbc 430e febd 5b68 ed3d 2848 f83d
00000260: dfa4 d23d 57cc 823d 9d23 2fbe 638d 0cbd
00000270: 3bf1 41be 17cf 99be 9e0f 20be 53e9 50be
00000280: a745 4bbe f618 5abd 63dc 1f3e f12a 5a3e
00000290: f413 393e 49e0 2f3e 97a0 283d 81d1 e23d
000002a0: aa68 683e b060 2f3e c072 cb3d 20d9 2e3d
000002b0: 6fe7 91bd 94d0 8d3d 86bb 79bd e0d4 d23d
000002c0: 1ded 363d 73ac 173e 7896 343e e06a 803d
000002d0: 85ff b6bd b130 debd 5182 1ebe 9846 fdbd
000002e0: d7b8 e43c de81 01be 0c92 5fbc d478 37be
000002f0: 8c6b 67be bfc6 313e efad 4c3e 8ece 813e
00000300: b9a8 ab3d 4dea 8ebd 9827 023e 4b05 30be
00000310: 4877 60be 99b4 32be 162f 763e f67d 623e
00000320: 7c16 733e c004 063e 3f74 2a3e 38b2 883e
00000330: 5a2c e2bd a561 12be 8644 7dbd 06ca 493e
00000340: ce55 dd3d 2bbb 893d 6fe0 7c3e f80b 7a3e
00000350: eafa 8d3d 9e67 323d c0ad b63d 2729 f43d
00000360: 698d 963e dc59 8c3e f303 c03e 41be 37be
00000370: 4c9c 6abe 74cd 0abd 9e74 0abf 93ad c2be
00000380: 03fe 00bf a5d4 45be 96a6 06be 19c8 88be
00000390: af75 5fbf 282a 58bf f1ca 68bf 7604 56bf
000003a0: c8c7 1bbf 0d9e 41bf af92 18bf 6641 20bf
000003b0: 2946 d9be ff75 15bf 0900 14bf 81c3 43bf
000003c0: f587 fbbe a4d1 0fbf a3da b0be 651b 0b3d
000003d0: cc1f 3d3e 7823 103e 547b b33d 9c07 b23d
000003e0: 953c 7b3d a16c d4be 8062 d8be 36f7 ccbe
000003f0: fb9d 8f3e 6fe0 123e 8b5b 863e 9dcf 703e

sequential/conv2d_1/Conv2D f4 [32, 3, 3, 32]
0.055443805 0.09240165 -0.033343792 0.16909921 0.116957135 0.053298313 0.09680829 -0.062488858
-0.08320705 -0.023126256 0.46450523 0.15808657 0.02419698 0.028316023 0.11082756 0.15517302
-0.03886257 0.13103473 0.07217775 -0.079074875 -0.0861853 0.0929769 -0.11248067 0.017333735
0.07733592 -0.035079714 -0.041292194 0.04151703 0.16536292 0.12603296 -0.2334505 0.08965181
0.07435502 0.20536809 0.09579188 0.16351727 0.01637119 0.27959955 0.10190599 0.14288242
-0.12519504 -0.14304945 0.26611805 0.014526372 -0.014663258 -0.0024608732 0.036083464 -0.17523305
0.002920225 0.0997013 0.28864738 -0.15645464 0.012046441 0.21782961 0.10045917 0.020746218
0.22127429 0.22101773 0.07270065 -0.16075563 -0.09102244 -0.0731065 0.034297053 -0.09966864
0.2272118 0.0015170552 0.028160466 -0.054941703 -0.017941948 -0.09935115 0.089549825 -0.029721947
0.005627438 -0.07553358 -0.33407432 -0.13194196 0.045926195 -0.041705117 0.13428515 -0.041445438
-0.100825936 0.06902585 -0.066558205 -0.071235925 -0.19067776 0.033709962 0.056032423 0.111589156
0.25529304 -0.12079827 -0.057657912 -0.04998786 -0.06550384 -0.0045383237 -0.17886585 0.024679067
-0.10700536 0.005518742 0.15285069 0.07932054 -0.18380097 -0.05267196 0.06925399 -0.074123494
-0.2337785 -0.13559511 -0.25433782 0.15887614 0.0028158172 -0.11802591 -0.042742863 0.0077973334
0.022017939 0.1792761 -0.21570718 0.008633933 -0.23405404 -0.0600138 -0.21326916 -0.109550685
0.17793974 -0.1370151 0.040128205 -0.097669974 0.07151703 -0.17413798 -0.076176725 0.04188323
0.09000805 -0.009874161 0.029557476 0.13265432 0.22143628 -0.05609541 0.03225228 -0.06269028
-0.23998462 -0.047431637 0.12572688 0.08461679 -0.1706397 -0.009482234 0.23928156 -0.015781336
0.08255833 0.17060769 0.08847606 0.0426646 -0.09182948 0.06049412 0.14621532 0.16585031
0.041525424 0.169215 -0.09584818 0.23440969 0.16509445 0.08715005 0.2040413 -0.026281415
0.23252241 0.013727738 0.017568527 0.10993721 -0.008139393 0.29515794 0.17188798 0.025994338
-0.18541424 0.11046926 0.13492322 0.28938988 0.058962498 -0.022895211 -0.042910732 -0.045461565
0.1071339 -0.10817716 0.059933446 0.3120311 0.05683597 0.14734976 0.2161091 -0.009994581
-0.033282414 0.31494302 0.20310335 -0.10522212 0.14399515 0.060541097 0.0692343 -0.06280018
0.1444914 -0.10637563 0.13276257 -0.055419113 0.050110612 0.15333198 0.107115194 0.01924055
-0.25859806 0.015243956 0.22576535 0.11998291 0.048443884 -0.03390043 -0.09922835 0.0026444413
-0.06841067 -0.070264794 0.17694278 0.26697886 0.0822562 0.103863955 -0.040310472 0.08218601
0.01165703 0.09866938 0.13826035 -0.012107911 -0.015498257 0.13383806 -0.049752403 -0.065802686
0.057588626 -0.19519337 -0.11808913 -0.21259646 -0.030300876 0.18270524 -0.18680869 -0.14344165
-0.08967282 -0.010975957 -0.10577462 0.011248395 -3.4177352e-05 -0.13263543 -0.036998097 -0.19613996
-0.22610806 -0.26352972 -0.05560686 0.17460363 -0.023139844 -0.26397818 -0.20721324 0.048802823
-0.16760546 0.31110048 0.06336377 0.31273684 0.075441115 -0.16173963 0.04209235 -0.17334467
00000000: 0b19 633d 143d bd3d 8093 08bd 5828 2d3e
00000010: 3987 ef3d 554f 5a3d 6d43 c63d 51f4 7fbd
00000020: 7568 aabd 4673 bdbc a1d3 ed3e 72e1 213e
00000030: bf38 c63c 01f7 e73c 8ff9 e23d ade5 1e3e
00000040: 5c2e 1fbd f82d 063e eed1 933d 02f2 a1bd
00000050: eb81 b0bd ac6a be3d 445c e6bd 7aff 8d3c
00000060: 4b62 9e3d bfaf 0fbd 0122 29bd c30d 2a3d
00000070: e654 293e c90e 013e a60d 6fbe 5e9b b73d
00000080: 7247 983d 034c 523e 882e c43d 1271 273e
00000090: e01c 863c ac27 8f3e 16b4 d03d c54f 123e
000000a0: 2133 00be 8e7b 12be a040 883e 0500 6e3c
000000b0: 293e 70bc 9a46 21bb 41cc 133d 4b70 33be
000000c0: 3f61 3f3b 3230 cc3d 97c9 933e a535 20be
000000d0: 705e 453c ba0e 5f3e 8abd cd3d f9f3 a93c
000000e0: ba95 623e 7952 623e 14e4 943d 209d 24be
000000f0: f969 babd dcb8 95bd 117b 0c3d 121f ccbd
00000100: 36aa 683e edd7 c63a c7b0 e63c 8d0a 61bd
00000110: fefa 92bc 9e78 cbbd e665 b73d 717b f3bc
00000120: 5f66 b83b 59b1 9abd ca0b abbe cb1b 07be
00000130: 1b1d 3c3d fcd2 2abd 0c82 093e b1c2 29bd
00000140: d47d cebd 6d5d 8d3d ab4f 88bd 24e4 91bd
00000150: 0841 43be 7513 0a3d 4182 653d db88 e43d
00000160: c5b5 823e 1565 f7bd b42a 6cbd 12c0 4cbd
00000170: e126 86bd 38b6 94bb 9c28 37be c12b ca3c
00000180: a025 dbbd 90d6 b43b e484 1c3e cf72 a23d
00000190: 5236 3cbe 8ebe 57bd 09d5 8d3d 0fce 97bd
000001a0: a263 6fbe 72d9 0abe 9138 82be 6db0 223e
000001b0: 9389 383b 91b7 f1bd 2413 2fbd c680 ff3b
000001c0: f75e b43c 2794 373e 58e2 5cbe 5775 0d3c
000001d0: ddab 6fbe 08d1 75bd 3b63 5abe 1c5c e0bd
000001e0: d635 363e b04d 0cbe 795d 243d 3207 c8bd
000001f0: 8577 923d 3a51 32be 8b02 9cbd c08d 2b3d
00000200: 2456 b83d 3cc7 21bc 8522 f23c 89d6 073e
00000210: 31c0 623e 4dc4 65bd f71a 043d c363 80bd
00000220: 87be 75be ad47 42bd 8cbe 003e 914b ad3d
00000230: 2cbc 2ebe 5f5b 1bbc 3a06 753e dc47 81bc
00000240: 5714 a93d c8b3 2e3e f032 b53d 13c1 2e3d
00000250: 1811 bcbd afc8 773d 78b9 153e aad4 293e
00000260: 9016 2a3d b246 2d3e 0d4c c4bd 1809 703e
00000270: 850e 293e ba7b b23d 34f0 503e 1f4c d7bc
00000280: 5b1a 6e3e 4eea 603c dfeb 8f3c c326 e13d
00000290: 175b 05bc f11e 973e 6703 303e 14f2 d43c
000002a0: 3bdd 3dbe b53d e23d 5029 0a3e e92a 943e
000002b0: a982 713d bd8e bbbc 2ac3 2fbd e835 3abd
000002c0: 0569 db3d fd8b ddbd c67c 753d 8ac2 9f3e
000002d0: d6cc 683d dbe2 163e b44b 5d3e 50c0 23bc
000002e0: 2453 08bd 3640 a13e 53fa 4f3e b27e d7bd
000002f0: 7773 133e f1f9 773d b6ca 8d3d 619d 80bd
00000300: 8ef5 133e 77db d9bd e9f2 073e 27ff 62bd
00000310: c940 4d3d 0f03 1d3e 365f db3d 5c9e 9d3c
00000320: f766 84be c9c1 793c 082f 673e 9ab9 f53d
00000330: 186d 463d 2ddb 0abd 3c38 cbbd 5d4e 2d3b
00000340: e51a 8cbd fde6 8fbd 7d30 353e 74b1 883e
00000350: f075 a83d a0b6 d43d 981c 25bd 2451 a83d
00000360: 21fd 3e3c 2c13 ca3d 1f94 0d3e 4260 46bc
00000370: 67ec 7dbc d80c 093e 2dc9 4bbd 8fc3 86bd
00000380: 0de2 6b3d c5e0 47be b7d8 f1bd e3b2 59be
00000390: 8b39 f8bc 1517 3b3e c74a 3fbe 5ee2 12be
000003a0: 62a6 b7bd 80d4 33bc 5da0 d8bd 304b 383c
000003b0: a759 0fb8 95d1 07be 518b 17bd ead8 48be
000003c0: df88 67be 5eed 86be 05c4 63bd 4bcb 323e
000003d0: c58f bdbc 2628 87be b52f 54be 78e5 473d
000003e0: c4a0 2bbe 9048 9f3e ddc4 813d 0b1f a03e
000003f0: df80 9a3d 139f 25be 0769 2c3d 4481 31be

sequential/conv2d_2/Conv2D f4 [64, 3, 3, 32]
0.05538401 0.07110758 -0.00823267 -0.12888338 0.2563445 0.06633497 -0.0964245 0.12109883
0.20840208 -0.0015311227 0.07107258 -0.08135876 0.005400915 0.09705373 0.1800062 -0.0126950815
0.12424966 0.015126222 0.3823827 5.309951e-05 0.027884735 0.013573124 -0.1051131 0.020392954
0.012002602 -0.06909135 0.22601745 0.21503353 -0.0037682804 -0.23810613 -0.010820716 0.02232972
0.22185934 0.11375022 0.18817776 0.1480938 0.14144476 0.18409462 0.08052079 -0.03066623
0.1553799 -0.17474346 -0.2589078 0.21002206 0.07694309 0.025162138 0.14972745 0.07933365
0.2809302 0.06971945 0.021624917 0.13792029 0.2655666 -0.02980178 -0.15136574 0.10785384
-0.1193599 0.08493105 0.23603113 0.20840845 -0.24901882 -0.013246261 -0.038345348 0.15489233
0.05367114 -0.0087117115 -0.13755842 0.035143137 -0.023572383 0.12341164 0.059594765 0.089832485
-0.23054439 -0.09281127 -0.08613836 0.35931864 -0.01745484 -0.05798144 0.08920059 0.22799459
-0.053314246 -0.058363248 0.17158256 -0.17464834 -0.0010442457 -0.08558939 -0.07169347 -0.02049677
-0.12925594 -0.02639158 -0.07445033 0.08701942 0.15987182 0.0821762 -0.11461694 0.056878544
-0.002213066 -0.39385524 0.019900925 -0.043875355 0.10658948 -0.10649997 -0.012912316 0.23367544
-0.1256091 -0.2613921 0.22213489 -0.22929446 0.120381504 0.027197355 -0.15590358 0.14328587
-0.16494848 0.012625211 -0.10991521 -0.086486295 -0.12922202 -0.2697471 0.08905377 -0.23746908
0.054429073 0.18055052 -0.013710549 0.055915922 0.0587439 -0.22299103 -0.035944305 -0.18278286
0.063408814 -0.046226874 0.008081426 0.17415828 0.056071434 0.060976215 -0.19272217 0.004842755
-0.02724428 0.18302524 0.0025489521 -0.06655799 -0.04535447 -0.06701 0.12636913 0.20126152
-0.033564616 0.017927008 -0.044163495 -0.13206759 0.18742338 -0.036239337 -0.08675737 0.08361046
-0.20281674 -0.18127699 0.0018323 -0.075072065 -0.08825598 -0.04727033 0.0050899824 0.026484823
0.16265596 0.015642297 -0.079040065 0.20089167 -0.39012283 -0.08660028 -0.10295553 -0.26256886
-0.13375461 -0.062088232 0.097735815 0.050122336 0.03564801 0.14570846 0.24092995 -0.009533072
-0.28850856 0.08520124 -0.030616514 0.031173738 0.1176728 0.0011765066 0.025274318 -0.006648641
0.022063227 0.07649728 -0.015256936 0.012728156 0.17649974 -0.08227962 0.022494784 -0.22583422
-0.009988735 -0.29083222 -0.09504333 -0.059190035 -0.06335338 -0.11353639 0.08176726 0.04633492
0.06826873 -0.19896646 -0.04901491 -0.0052929297 0.0029913953 0.012681896 -0.16133311 0.028497903
-0.03161169 -0.054360628 0.011703984 0.20393616 -0.20548902 -0.1320603 -0.22938885 0.18538174
0.073993325 -0.1075254 -0.11558909 -0.008596031 -0.2537141 0.09625253 0.13692105 -0.04072435
-0.11460656 -0.13343196 0.113701224 -0.02588716 -0.32573503 -0.18409152 -0.046019 0.07019257
0.014648191 -0.009660284 0.055629686 0.008444978 0.020510493 -0.05786778 0.24420206 0.08783987
0.018658709 -0.16595279 -0.23880845 0.028955432 -0.07361858 -0.14403611 0.013627668 0.054870855
-0.023403095 -0.15881714 0.014315252 -0.019495742 -0.039580006 -0.042932853 0.05801339 -0.054990426
00000000: 58da 623d daa0 913d 52e2 06bc 01fa 03be
00000010: 963f 833e a1da 873d 357a c5bd aa02 f83d
00000020: 5b67 553e f4af c8ba 808e 913d 6c9f a6bd
00000030: 29fa b03b 1bc4 c63d 8c53 383e 08ff 4fbc
00000040: 9b76 fe3d f9d3 773c aac7 c33e 2ab7 5e38
00000050: 876e e43c cf61 5e3c 8945 d7bd 200f a73c
00000060: 90a6 443c c47f 8dbd 1e71 673e c031 5c3e
00000070: 41f5 76bb 18d2 73be 5f49 31bc d1ec b63c
00000080: 182f 633e e0f5 e83d acb1 403e e7a5 173e
00000090: e5d6 103e 4d83 3c3e 15e8 a43d bf37 fbbc
000000a0: e91b 1f3e f3ef 32be 908f 84be 0610 573e
000000b0: 5794 9d3d d420 ce3c 2752 193e ae79 a23d
000000c0: 15d6 8f3e 12c9 8e3d bd26 b13c fa3a 0d3e
000000d0: 58f8 873e dd22 f4bc 9fff 1abe 79e2 dc3d
000000e0: f772 f4bd 55f0 ad3d 25b2 713e 0669 553e
000000f0: cafe 7ebe d806 59bc 0310 1dbd 189c 1e3e
00000100: 45d6 5b3d 91bb 0ebc 1ddc 0cbe 40f2 0f3d
00000110: df1a c1bc 3ebf fc3d a419 743d 18fa b73d
00000120: d413 6cbe d613 bebd 4f69 b0bd 9df8 b73e
00000130: 74fd 8ebc f27d 6dbd cdae b63d 6a77 693e
00000140: 0a60 5abd 4d0e 6fbd 57b3 2f3e 04d7 32be
00000150: 12df 88ba 7d49 afbd 07d4 92bd d8e8 a7bc
00000160: ab5b 04be 2833 d8bc 6a79 98bd 3d37 b23d
00000170: 70b5 233e ff4b a83d 49bc eabd 7af9 683d
00000180: 1609 11bb 65a7 c9be 4407 a33c a5b6 33bd
00000190: 964b da3d a81c dabd 2e8e 53bc 9d48 6f3e
000001a0: ac9f 00be 2fd5 85be 5477 633e 2bcc 6abe
000001b0: 948a f63d fdcc de3c 30a5 1fbe 88b9 123e
000001c0: 41e8 28be f9d9 4e3c 3a1b e1bd ba1f b1bd
000001d0: c752 04be 4b1c 8abe d361 b63d 182b 73be
000001e0: 05f1 5e3d 3ce2 383e 36a2 60bc 1808 653d
000001f0: 729d 703d c357 64be 563a 13bd 6e2b 3bbe
00000200: 7bdc 813d 6458 3dbd f567 043c 8c56 323e
00000210: 29ab 653d 32c2 793d f658 45be f9af 9e3b
00000220: 652f dfbc f86a 3b3e 520c 273b 8e4f 88bd
00000230: 9cc5 39bd 8a3c 89bd e966 013e 8017 4e3e
00000240: 0d7b 09bd a9db 923c c8e4 34bd ba3c 07be
00000250: eaeb 3f3e b36f 14bd d9ad b1bd f63b ab3d
00000260: 31af 4fbe ada0 39be c929 f03a 62bf 99bd
00000270: 8dbf b4bd 899e 41bd dec9 a63b b3f6 d83c
00000280: 498f 263e 4624 803c c2df a1bd 8cb6 4d3e
00000290: 2ebe c7be 7d5b b1bd 59da d2bd 6d6f 86be
000002a0: f8f6 08be 3b50 7ebd b729 c83d 144d 4d3d
000002b0: a603 123d 9934 153e 57b6 763e 9a30 1cbc
000002c0: 65b7 93be fd7d ae3d 7ccf fabc 1160 ff3c
000002d0: 70fe f03d 0335 9a3a 160c cf3c d8dc d9bb
000002e0: f1bd b43c 9baa 9c3d 3af8 79bc c189 503c
000002f0: 59bc 343e 3882 a8bd fb46 b83c 1641 67be
00000300: cba7 23bc f6e7 94be 14a6 c2bd 4071 72bd
00000310: 6bbf 81bd c485 e8bd 9875 a73d afc9 3d3d
00000320: 7ad0 8b3d ddbd 4bbe dcc3 48bd 5070 adbb
00000330: 490b 443b bac7 4f3c 8234 25be 6f74 e93c
00000340: 427b 01bd 40a9 5ebd 11c2 3f3c a4d4 503e
00000350: b76b 52be d13a 07be e9e4 6abe b6d4 3d3e
00000360: d089 973d 4736 dcbd f9b9 ecbd 5ed6 0cbc
00000370: d1e6 81be 0c20 c53d 0835 0c3e 93ce 26bd
00000380: d8b6 eabd 63a2 08be 30dc e83d 4f11 d4bc
00000390: bec6 a6be 7d82 3cbe 6b7e 3cbd 1fc1 8f3d
000003a0: f7fe 6f3c 2b46 1ebc f4db 633d ce5c 0a3c
000003b0: 9f05 a83c c406 6dbd 1b10 7a3e 64e5 b33d
000003c0: 26da 983c 87ef 29be 348a 74be f133 ed3c
000003d0: 57c5 96bd 347e 13be 9546 5f3c 43c0 603d
000003e0: d9b7 bfbc f6a0 22be 858a 6a3c 89b5 9fbc
000003f0: a51e 22bd 5cda 2fbd 739f 6d3d a43d 61bd

sequential/dense/BiasAdd/ReadVariableOp f4 [64]
-0.0060035232 -0.015573291 -0.006412787 -0.012267963 -0.029707156 -0.0060077654 -0.067163564 -0.021405235
-0.00703125 -0.020157814 -0.042977955 0.009857781 -0.034109175 -0.047886852 -0.0490705 -0.026552696
0.0158989 0.017128665 -0.016911615 -0.012548717 -0.031159278 -0.011979296 -0.010599336 -0.01772037
-0.007843758 -0.0029045055 -0.030494787 0.10016634 -0.00956136 -0.006692076 -0.02684217 -0.027980065
-0.0070341798 -0.014744458 0.03958123 -0.03901073 -0.056438044 -0.041236553 0.07680686 0.030885756
-0.013759276 0.06989161 -0.006031432 -0.0065471185 0.0023239406 -0.0059885727 -0.007094767 -0.0384991
-0.029755022 -0.008951808 0.0154236825 0.081750035 -0.027961018 0.010609078 0.073165484 -0.05845177
-0.043245755 -0.035351057 -0.026712539 -0.019373903 -0.012878986 -0.00039066514 -0.009891538 -0.054439016
00000000: 34b9 c4bb 1e27 7fbc 5b22 d2bb 91ff 48bc
00000010: 6c5c f3bc cadc c4bb 0d8d 89bd 085a afbc
00000020: 6666 e6bb 0022 a5bc a709 30bd 8882 213c
00000030: 10b6 0bbd 0125 44bd 26fe 48bd 0a85 d9bc
00000040: 693e 823c 6a51 8c3c 3a8a 8abc 2299 4dbc
00000050: be41 ffbc cf44 44bc d6a8 2dbc 4f2a 91bc
00000060: 1b83 00bc 8459 3ebb 34d0 f9bc 0324 cd3d
00000070: 40a7 1cbc 3449 dbbb 1ce4 dbbc 7336 e5bc
00000080: fa7e e6bb bd92 71bc ee1f 223d b7c9 1fbd
00000090: 942b 67bd a9e7 28bd ea4c 9d3d 2004 fd3c
000000a0: 966e 61bc 5523 8f3d 52a3 c5bb 3689 d6bb
000000b0: 414d 183b ca3b c4bb 387b e8bb 3bb1 1dbd
000000c0: cec0 f3bc 9baa 12bc 9db3 7c3c 906c a73d
000000d0: 810e e5bc b3d1 2d3c c9d7 953d 206b 6fbd
000000e0: 7622 31bd 45cc 10bd 41d4 dabc 05b6 9ebc
000000f0: 6202 53bc 30d2 ccb9 1e10 22bc 72fb 5ebd

sequential/dense/MatMul f4 [64, 2304]
-0.021277342 -0.020926237 -0.025819913 0.020031707 -0.031816814 -0.017016305 0.013508146 -0.05048332
0.00033867164 0.039390914 0.044265844 0.005737076 0.037303925 -0.021769742 0.016553499 0.011981294
-0.012895785 -0.03813806 -0.0011515531 -0.020205084 -0.022704024 0.02443679 -0.004763387 0.039113797
-0.048735373 0.0076710917 0.02769152 -0.03207992 0.014462768 -0.010841148 -0.021748165 -0.010892425
0.0012922038 -0.006725253 0.012812778 -0.043726478 -0.037239637 0.014536089 0.02638501 0.0030441436
0.034568585 -0.03761967 -0.049621347 -0.046988368 -0.03454894 0.0012068591 -0.033418622 -0.03687471
-0.017705409 -0.014960211 -0.016108012 0.038629506 -0.052340843 -0.01698727 0.035946704 -0.01761702
-0.05479273 0.009283811 -0.048241448 0.01164399 0.02068817 -0.007536362 0.033673756 -0.046174344
0.03709693 -0.048101168 0.020099297 -0.04323043 0.00200837 -0.04781171 -0.025187228 -0.013773017
-0.011205525 0.007917754 -0.049167626 0.0011864407 -0.0013324042 -0.04813873 0.04271575 -0.025608838
-0.0143646775 0.024698518 -0.025384657 -0.028920634 0.01875583 -0.0025637022 -0.040199958 -0.038952928
-0.017012404 -0.049334414 -0.036368065 -0.0055926107 -0.019250626 -0.029357653 -0.041636296 0.03221782
-0.022806326 0.01106965 -0.056018945 -0.009903568 -0.054292917 -0.0098568965 -0.019397482 -0.023587625
0.036862165 -0.056232523 -0.045498993 0.043059893 -0.030197674 0.03268131 0.01177383 -0.045566663
0.0044632345 -0.021799875 0.029961113 0.02730143 0.025475759 -0.049043015 -0.008232851 0.01405617
0.0337977 -0.054807153 -0.03880478 0.0039674076 0.0121615995 0.013293078 0.010237953 0.02432768
0.022962235 -0.026776057 0.032602593 0.008462348 0.0065555107 -0.049818214 -0.013089502 -0.017308231
-0.043170948 -0.029965445 0.048471645 0.014964541 -0.0018703403 -0.004453768 -0.029240536 0.0021643736
-0.04505278 0.01736811 0.023866681 -0.03169082 0.032835513 0.0053306683 0.0023536747 0.009260068
0.0059558973 0.008240561 0.04045699 0.040145487 -0.024808327 -0.046691325 0.021046206 -0.037401885
-0.050175007 0.009806518 0.01882271 0.008727458 -0.03848476 -0.05368819 0.034227803 -0.045261156
-0.023822164 -0.019132456 0.010375477 -0.005682893 -0.03844915 -0.04536506 -0.0167225 -0.04938471
0.040615857 -0.014679177 -0.012530048 -0.05162991 0.027806513 0.028280219 -0.026956063 -0.043859646
-0.028648868 0.0017712965 0.029457003 0.03261649 0.0013268223 -0.04475932 -0.042649698 -0.011289582
-0.046133786 -0.0025391914 -0.003617087 -0.020064147 0.024818122 0.011762459 0.008020071 -0.046236496
-0.0092733 -0.039112065 -0.027630406 0.040100675 -0.034408018 -0.033421244 0.022605576 0.0019325865
-0.012513783 -0.030028967 0.012377152 0.027179865 -0.04273441 -0.02457101 0.043333374 -0.045014683
-0.0062716445 -0.032335732 -0.010720756 -0.044882216 -0.05108396 -0.005293407 -0.0011998676 0.0077960417
-0.017190006 0.03330115 -0.042169113 -0.009125593 -0.02676786 0.017655611 -0.005439493 0.0015631914
0.002018019 -0.010119269 -0.049550496 -0.0052010342 0.01036549 -0.013723277 0.024206417 -0.036536675
0.019095456 -0.019187495 -0.015828742 -0.026757605 -0.05433225 0.036645222 0.024183512 0.006475728
0.028329106 -0.017002365 0.008158829 -0.009562494 -0.0046520536 0.026733093 0.03826017 -0.011530263
00000000: d24d aebc 806d abbc 4884 d3bc 8919 a43c
00000010: 5952 02bd c765 8bbc 4551 5d3c 99c7 4ebd
00000020: bd8f b139 5e58 213d 1a50 353d 15fe bb3b
00000030: 00cc 183d 7556 b2bc 349b 873c 304d 443c
00000040: d848 53bc a836 1cbd b6ef 96ba 2285 a5bc
00000050: cafd b9bc aa2f c83c 3016 9cbb ca35 203d
00000060: be9e 47bd c85d fb3b 54d9 e23c 3c66 03bd
00000070: 3ff5 6c3c 129f 31bc 3529 b2bc 2476 32bc
00000080: 2a5f a93a 835f dcbb b0ec 513c 891a 33bd
00000090: 9788 18bd c728 6e3c 6025 d83c 4180 473b
000000a0: ca97 0d3d 1517 1abd c13f 4bbd e076 40bd
000000b0: 3083 0dbd 792f 9e3a f7e1 08bd f009 17bd
000000c0: ef0a 91bc ac1b 75bc f3f4 83bc f939 1e3d
000000d0: 5a63 56bd e328 8bbc da3c 133d 9251 90bc
000000e0: 576e 60bd 201b 183c d398 45bd 6fc6 3e3c
000000f0: 3d7a a93c 96f3 f6bb 7eed 093d 4f21 3dbd
00000100: f3f2 173d bb05 45bd 48a7 a43c 6412 31bd
00000110: db9e 033b 36d6 43bd 7255 cebc 38a8 61bc
00000120: 6197 37bc 78b9 013c fe63 49bd 5882 9b3a
00000130: 11a4 aeba 1e2d 45bd b6f6 2e3d a0c9 d1bc
00000140: d359 6bbc 8c54 ca3c 7cf3 cfbc f7ea ecbc
00000150: d4a5 993c c903 28bb b6a8 24bd 1b8d 1fbd
00000160: 995d 8bbc e212 4abd aef6 14bd 3842 b7bb
00000170: 7db3 9dbc 767f f0bc d28a 2abd d5f6 033d
00000180: 55d4 babc 7a5d 353c 1f74 65bd 9342 22bc
00000190: 4062 5ebd d27e 21bc 78e7 9ebc d63a c1bc
000001a0: c8fc 163d 1354 66bd 275d 3abd 925f 303d
000001b0: 1d61 f7bc d6dc 053d 06e7 403c 1ca4 3abd
000001c0: 5340 923b a795 b2bc 0271 f53c 40a7 df3c
000001d0: 8ab2 d03c 54e1 48bd 14e3 06bc da4b 663c
000001e0: 756f 0a3d 777d 60bd c3f1 1ebd 0701 823b
000001f0: 7241 473c 36cb 593c 16bd 273c d84a c73c
00000200: 4c1b bc3c 7659 dbbc 4c8a 053d a9a5 0a3c
00000210: 9ccf d63b 2f0e 4cbd 5a75 56bc fec9 8dbc
00000220: 05d4 30bd 187a f5bc 348a 463d d62d 753c
00000230: 3526 f5ba eaf0 91bb d989 efbc 2ad8 0d3b
00000240: 4489 38bd 9147 8e3c 0f84 c33c 3cce 01bd
00000250: 887e 063d e3ac ae3b 1c40 1a3b 8ab7 173c
00000260: b029 c33b 6b03 073c 3bb6 253d 986f 243d
00000270: d53a cbbc 673f 3fbd 1869 ac3c b832 19bd
00000280: 4f84 4dbd 85ab 203c 1532 9a3c 9dfd 0e3c
00000290: 32a2 1dbd 26e8 5bbd 7432 0c3d c363 39bd
000002a0: b326 c3bc abbb 9cbc e8fd 293c 9037 babb
000002b0: db7c 1dbd b7d0 39bd a0fd 88bc 9f47 4abd
000002c0: d05c 263d ee80 70bc d54a 4dbc e279 53bd
000002d0: 7cca e33c ebab e73c f6d2 dcbc 2ca6 33bd
000002e0: 08b1 eabc d92a e83a d04f f13c de98 053d
000002f0: c5e8 ad3a 8c55 37bd 73b1 2ebd f0f7 38bc
00000300: c8f6 3cbd 9068 26bb a60c 6dbb 915d a4bc
00000310: 604f cb3c 54b7 403c 9e66 033c 7b62 3dbd
00000320: 0aef 17bc f933 20bd 2959 e2bc 9b40 243d
00000330: 6cef 0cbd b7e4 08bd 542f b93c d84e fd3a
00000340: 9c06 4dbc 4fff f5bc 8ac9 4a3c 4fa8 de3c
00000350: 470a 2fbd 2549 c9bc 567e 313d 5161 38bd
00000360: 5e82 cdbb 7972 04bd 1ca6 2fbc 6ad6 37bd
00000370: 6a3d 51bd 5174 adbb e044 9dba f075 ff3b
00000380: 0ed2 8cbc c966 083d 85b9 2cbd 8383 15bc
00000390: 4548 dbbc 80a2 903c c63d b2bb 00e4 cc3a
000003a0: be40 043b 4acb 25bc 76f5 4abd 706d aabb
000003b0: 04d4 293c 98d7 60bc 894c c63c 7ba7 15bd
000003c0: 136e 9c3c 182f 9dbc 47ab 81bc c432 dbbc
000003d0: 7e8b 5ebd 4d19 163d 801c c63c 5832 d43b
000003e0: 7112 e83c 8b48 8bbc 9cac 053c 02ac 1cbc
000003f0: 4170 98bb 5cff da3c b2b6 1c3d 6ee9 3cbc

sequential/dense_1/MatMul f4 [1, 64]
-0.071475305 -0.23161522 -0.002703171 -0.18106814 0.29705295 -0.20468408 0.16991515 0.27004623
-0.21188763 -0.2578695 0.42351398 0.44606084 0.27516246 0.41132954 0.30435303 -0.23244356
-0.4055703 -0.17853639 0.27568877 0.2798896 0.41116348 -0.016901577 -0.14128439 0.17951213
0.13349287 0.24762256 0.07191234 -0.3908206 -0.07961198 -0.11802708 0.28181854 0.31237996
-0.03752013 -0.05295861 -0.39047286 0.09312765 0.13479236 0.20434447 -0.3922761 -0.30632517
-0.10574636 -0.48527622 -0.29752767 -0.050454035 -0.39536697 -0.0013613688 -0.19798085 0.32297337
0.34472293 -0.15015884 0.35311246 -0.40160984 -0.28702277 -0.5450003 -0.47839352 -0.014400807
0.35965696 0.007637781 0.27327853 0.09168306 -0.07702219 -0.22326608 0.24603343 0.23613867
00000000: a561 92bd 8a2c 6dbe af27 31bb ed69 39be
00000010: 5317 983e b498 51be 3dfe 2d3e 8043 8a3e
00000020: 12f9 58be 7907 84be d3d6 d83e 1662 e43e
00000030: 18e2 8c3e c999 d23e 29d4 9b3e af05 6ebe
00000040: e9a6 cfbe 3ed2 36be 1427 8d3e b14d 8f3e
00000050: 0584 d23e 2d75 8abc dbac 10be 07d2 373e
00000060: 5bb2 083e c590 7d3e c746 933d a319 c8be
00000070: 9b0b a3bd 2fb8 f1bd 854a 903e 44f0 9f3e
00000080: b5ae 19bd 21eb 58bd 0fec c7be b6b9 be3d
00000090: 0207 0a3e ad3f 513e 6ad8 c8be a7d6 9cbe
000000a0: 8c91 d8bd 2076 f8be 8c55 98be e4a8 4ebd
000000b0: 8a6d cabe f56f b2ba 7ebb 4abe c45c a53e
000000c0: 867f b03e 3dc3 19be 28cb b43e ce9f cdbe
000000d0: a6f4 92be 2485 0bbf ffef f4be 5df1 6bbc
000000e0: f524 b83e 5a46 fa3b 2aeb 8b3e 54c4 bb3d
000000f0: cfbd 9dbd dd9f 64be 30f0 7b3e 56ce 713e
